…
2020-07-31 05:21:35.855081: I tensorflow/compiler/xla/service/service.cc:168] XLA service 0x55c255394420 initialized for platform Host (this does not guarantee that XLA will be used). Devices:
2020-07-31 05:21:35.855418: I tensorflow/compiler/xla/service/service.cc:176]   StreamExecutor device (0): Host, Default Version
WARNING:tensorflow:From /opt/vitis_ai/conda/envs/vitis-ai-tensorflow/lib/python3.6/site-packages/keras/backend/tensorflow_backend.py:4070: The name tf.nn.max_pool is deprecated. Please use tf.nn.max_pool2d instead.

Model: "model_1"
_________________________________________________________________
Layer (type)                 Output Shape              Param #   
=================================================================
input_1 (InputLayer)         (None, 28, 28, 1)         0         
_________________________________________________________________
conv2d_1 (Conv2D)            (None, 28, 28, 28)        280       
_________________________________________________________________
activation_1 (Activation)    (None, 28, 28, 28)        0         
_________________________________________________________________
batch_normalization_1 (Batch (None, 28, 28, 28)        112       
_________________________________________________________________
max_pooling2d_1 (MaxPooling2 (None, 14, 14, 28)        0         
_________________________________________________________________
conv2d_2 (Conv2D)            (None, 14, 14, 64)        16192     
_________________________________________________________________
activation_2 (Activation)    (None, 14, 14, 64)        0         
_________________________________________________________________
batch_normalization_2 (Batch (None, 14, 14, 64)        256       
_________________________________________________________________
max_pooling2d_2 (MaxPooling2 (None, 7, 7, 64)          0         
_________________________________________________________________
dropout_1 (Dropout)          (None, 7, 7, 64)          0         
_________________________________________________________________
flatten_1 (Flatten)          (None, 3136)              0         
_________________________________________________________________
dense_1 (Dense)              (None, 512)               1606144   
_________________________________________________________________
activation_3 (Activation)    (None, 512)               0         
_________________________________________________________________
dropout_2 (Dropout)          (None, 512)               0         
_________________________________________________________________
dense_2 (Dense)              (None, 25)                12825     
_________________________________________________________________
activation_4 (Activation)    (None, 25)                0         
=================================================================
Total params: 1,635,809
Trainable params: 1,635,625
Non-trainable params: 184
_________________________________________________________________
None
WARNING:tensorflow:From /opt/vitis_ai/conda/envs/vitis-ai-tensorflow/lib/python3.6/site-packages/keras/backend/tensorflow_backend.py:422: The name tf.global_variables is deprecated. Please use tf.compat.v1.global_variables instead.
…
